…
K-Fold data folder: /home/anhnd/DTI Project/Codes/MethodsComparisonX/data/kfolds_ec_aeolus
Model: NeuN
Format: AUC STDERR AUPR STDERR
K-Fold data folder: /home/anhnd/DTI Project/Codes/MethodsComparisonX/data/kfolds_ec_aeolus
Model: NeuN
Format: AUC STDERR AUPR STDERR
K-Fold data folder: /home/anhnd/DTI Project/Codes/MethodsComparisonX/data/kfolds_ec_aeolus
Model: NeuN
Format: AUC STDERR AUPR STDERR
K-Fold data folder: /home/anhnd/DTI Project/Codes/MethodsComparisonX/data/kfolds_ec_aeolus
Model: NeuN
Format: AUC STDERR AUPR STDERR
K-Fold data folder: /home/anhnd/DTI Project/Codes/MethodsComparisonX/data/kfolds_ec_aeolus
Model: NeuN
Format: AUC STDERR AUPR STDERR
Sequential(
  (0): Linear(in_features=6712, out_features=10, bias=True)
  (1): ReLU()
  (2): Linear(in_features=10, out_features=800, bias=True)
  (3): Sigmoid()
  (4): Linear(in_features=800, out_features=2707, bias=True)
  (5): Sigmoid()
)
((1223, 6712), (135, 2707))
Test : 0.8982485929523317 0.004402957054416448 0.7008181777611332 0.012947873383555296
Train: 0.9680154907527767 0.0004500461323724414 0.9006253306390098 0.0011208752078768099
K-Fold data folder: /home/anhnd/DTI Project/Codes/MethodsComparisonX/data/kfolds_ec_aeolus
Model: NeuN
Format: AUC STDERR AUPR STDERR
K-Fold data folder: /home/anhnd/DTI Project/Codes/MethodsComparisonX/data/kfolds_ec_aeolus
Model: NeuN
Format: AUC STDERR AUPR STDERR
K-Fold data folder: /home/anhnd/DTI Project/Codes/MethodsComparisonX/data/kfolds_ec_aeolus
Model: NeuN
Format: AUC STDERR AUPR STDERR
Sequential(
  (0): Linear(in_features=881, out_features=10, bias=True)
  (1): ReLU()
  (2): Linear(in_features=10, out_features=2707, bias=True)
)
((1223, 881), (135, 2707))
Test : 0.7287520901697835 0.0070504064822902585 0.3610389792118835 0.01346812340589595
Train: 0.8060088738928055 0.017879671412539717 0.508029073588536 0.032678257824521516
K-Fold data folder: /home/anhnd/DTI Project/Codes/MethodsComparisonX/data/kfolds_ec_aeolus
Model: NeuN
Format: AUC STDERR AUPR STDERR
K-Fold data folder: /home/anhnd/DTI Project/Codes/MethodsComparisonX/data/kfolds_ec_aeolus
…
K-Fold data folder: /home/anhnd/DTI Project/Codes/MethodsComparisonX/data/kfolds_ec_aeolus
Model: NeuN
Format: AUC STDERR AUPR STDERR
K-Fold data folder: /home/anhnd/DTI Project/Codes/MethodsComparisonX/data/kfolds_ec_aeolus
Model: NeuN
Format: AUC STDERR AUPR STDERR
K-Fold data folder: /home/anhnd/DTI Project/Codes/MethodsComparisonX/data/kfolds_ec_liu
Model: NeuN
Format: AUC STDERR AUPR STDERR
K-Fold data folder: /home/anhnd/DTI Project/Codes/MethodsComparisonX/data/kfolds_ec_liu
Model: NeuN
Format: AUC STDERR AUPR STDERR
K-Fold data folder: /home/anhnd/DTI Project/Codes/MethodsComparisonX/data/kfolds_ec_liu
Model: NeuN
Format: AUC STDERR AUPR STDERR
Sequential(
  (0): Linear(in_features=881, out_features=10, bias=True)
  (1): ReLU()
  (2): Linear(in_features=10, out_features=300, bias=True)
  (3): Sigmoid()
  (4): Linear(in_features=300, out_features=1385, bias=True)
  (5): Sigmoid()
)
((746, 881), (82, 1385))
Test : 0.8874170720011023 0.0038163480304047423 0.40417282740884986 0.009863171864843038
Train: 0.917955428280709 0.0013348902159084947 0.5367319127154844 0.006378113861638877
K-Fold data folder: /home/anhnd/DTI Project/Codes/MethodsComparisonX/data/kfolds_ec_aeolus
Model: NeuN
Format: AUC STDERR AUPR STDERR
Sequential(
  (0): Linear(in_features=881, out_features=10, bias=True)
  (1): ReLU()
  (2): Linear(in_features=10, out_features=300, bias=True)
  (3): Sigmoid()
  (4): Linear(in_features=300, out_features=2707, bias=True)
  (5): Sigmoid()
)
((1223, 881), (135, 2707))
Test : 0.7106779420312254 0.014469990610645415 0.353583487767205 0.016992531509341057
Train: 0.8816964091052046 0.011324071304702055 0.6583101172867744 0.024328858177232363
K-Fold data folder: /home/anhnd/DTI Project/Codes/MethodsComparisonX/data/kfolds_ec_aeolus
Model: NeuN
Format: AUC STDERR AUPR STDERR
Sequential(
  (0): Linear(in_features=6712, out_features=10, bias=True)
  (1): ReLU()
  (2): Linear(in_features=10, out_features=300, bias=True)
  (3): Sigmoid()
  (4): Linear(in_features=300, out_features=2707, bias=True)
  (5): Sigmoid()
)
((1223, 6712), (135, 2707))
Test : 0.8916974174987995 0.005123486292248851 0.6958559816419786 0.01577500703897922
Train: 0.9673951691408359 0.0009024370751751415 0.900997636410702 0.001806084676478335
K-Fold data folder: /home/anhnd/DTI Project/Codes/MethodsComparisonX/data/kfolds_ec_liu
Model: NeuN
Format: AUC STDERR AUPR STDERR
Sequential(
  (0): Linear(in_features=6712, out_features=10, bias=True)
  (1): ReLU()
  (2): Linear(in_features=10, out_features=300, bias=True)
  (3): Sigmoid()
  (4): Linear(in_features=300, out_features=1385, bias=True)
  (5): Sigmoid()
)
((746, 6712), (82, 1385))
Test : 0.8985775998056825 0.004441079377855896 0.45856438716058906 0.014259279651432465
Train: 0.9369821573818211 0.0009674190470474213 0.6388910466528566 0.006088019055254893
K-Fold data folder: /home/anhnd/DTI Project/Codes/MethodsComparisonX/data/kfolds_ec_liu
Model: NeuN
Format: AUC STDERR AUPR STDERR
Sequential(
  (0): Linear(in_features=881, out_features=10, bias=True)
  (1): ReLU()
  (2): Linear(in_features=10, out_features=300, bias=True)
  (3): Sigmoid()
  (4): Linear(in_features=300, out_features=1385, bias=True)
  (5): Sigmoid()
)
((746, 881), (82, 1385))
Test : 0.8856714005706717 0.0025818426379743795 0.3903931158402149 0.005468331086497467
Train: 0.9146962457055832 0.0018692736587619478 0.5188235964861425 0.012739274674663494
